…
WARNING:tensorflow:From /opt/conda/lib/python3.6/site-packages/keras/backend/tensorflow_backend.py:1344: calling reduce_mean (from tensorflow.python.ops.math_ops) with keep_dims is deprecated and will be removed in a future version.
Instructions for updating:
keep_dims is deprecated, use keepdims instead
__________________________________________________________________________________________________
Layer (type)                    Output Shape         Param #     Connected to                     
==================================================================================================
feature (InputLayer)            (None, 9, 20)        0                                            
__________________________________________________________________________________________________
Dense_embed_0 (Dense)           (None, 9, 32)        672         feature[0][0]                    
__________________________________________________________________________________________________
Dense_embed_1 (Dense)           (None, 9, 32)        1056        Dense_embed_0[0][0]              
__________________________________________________________________________________________________
adjacency_matrix (InputLayer)   (None, 9, 5, 9)      0                                            
__________________________________________________________________________________________________
repeat_vector3d_1 (RepeatVector (None, 9, 9, 32)     0           Dense_embed_1[0][0]              
__________________________________________________________________________________________________
reshape_1 (Reshape)             (None, 9, 1, 32)     0           Dense_embed_1[0][0]              
__________________________________________________________________________________________________
lambda_1 (Lambda)               (None, 9, 5, 32)     0           adjacency_matrix[0][0]           
                                                                 repeat_vector3d_1[0][0]          
__________________________________________________________________________________________________
agent_repr_0 (Dense)            (None, 9, 1, 32)     1056        reshape_1[0][0]                  
__________________________________________________________________________________________________
neighbor_repr_0 (Dense)         (None, 9, 5, 32)     1056        lambda_1[0][0]                   
__________________________________________________________________________________________________
reshape_2 (Reshape)             (None, 9, 1, 32, 1)  0           agent_repr_0[0][0]               
__________________________________________________________________________________________________
reshape_3 (Reshape)             (None, 9, 5, 32, 1)  0           neighbor_repr_0[0][0]            
__________________________________________________________________________________________________
neighbor_hidden_repr_0 (Dense)  (None, 9, 5, 32)     1056        lambda_1[0][0]                   
__________________________________________________________________________________________________
lambda_2 (Lambda)               (None, 9, 1, 1, 32)  0           reshape_2[0][0]                  
__________________________________________________________________________________________________
lambda_3 (Lambda)               (None, 9, 1, 5, 32)  0           reshape_3[0][0]                  
__________________________________________________________________________________________________
reshape_5 (Reshape)             (None, 9, 5, 32, 1)  0           neighbor_hidden_repr_0[0][0]     
__________________________________________________________________________________________________
lambda_4 (Lambda)               (None, 9, 1, 1, 5)   0           lambda_2[0][0]                   
                                                                 lambda_3[0][0]                   
__________________________________________________________________________________________________
lambda_5 (Lambda)               (None, 9, 1, 5, 32)  0           reshape_5[0][0]                  
__________________________________________________________________________________________________
lambda_6 (Lambda)               (None, 9, 1, 32)     0           lambda_4[0][0]                   
                                                                 lambda_5[0][0]                   
__________________________________________________________________________________________________
reshape_6 (Reshape)             (None, 9, 32)        0           lambda_6[0][0]                   
__________________________________________________________________________________________________
MLP_after_relation_0 (Dense)    (None, 9, 32)        1056        reshape_6[0][0]                  
__________________________________________________________________________________________________
reshape_4 (Reshape)             (None, 9, 1, 5)      0           lambda_4[0][0]                   
__________________________________________________________________________________________________
action_layer (Dense)            (None, 9, 4)         132         MLP_after_relation_0[0][0]       
__________________________________________________________________________________________________
reshape_7 (Reshape)             (None, 1, 9, 1, 5)   0           reshape_4[0][0]                  
==================================================================================================
Total params: 6,084
Trainable params: 6,084
Non-trainable params: 0
__________________________________________________________________________________________________
build_Input_end_time： 0.024913549423217773
embedding_time: 0.15537810325622559
total time: 2.1412546634674072
2023-03-05 07:30:20.440571: I tensorflow/core/platform/cpu_feature_guard.cc:141] Your CPU supports instructions that this TensorFlow binary was not compiled to use: AVX2 FMA
__________________________________________________________________________________________________
Layer (type)                    Output Shape         Param #     Connected to                     
==================================================================================================
feature (InputLayer)            (None, 9, 20)        0                                            
__________________________________________________________________________________________________
Dense_embed_0 (Dense)           (None, 9, 32)        672         feature[0][0]                    
__________________________________________________________________________________________________
Dense_embed_1 (Dense)           (None, 9, 32)        1056        Dense_embed_0[0][0]              
__________________________________________________________________________________________________
adjacency_matrix (InputLayer)   (None, 9, 5, 9)      0                                            
__________________________________________________________________________________________________
repeat_vector3d_1 (RepeatVector (None, 9, 9, 32)     0           Dense_embed_1[0][0]              
__________________________________________________________________________________________________
reshape_1 (Reshape)             (None, 9, 1, 32)     0           Dense_embed_1[0][0]              
__________________________________________________________________________________________________
lambda_1 (Lambda)               (None, 9, 5, 32)     0           adjacency_matrix[0][0]           
                                                                 repeat_vector3d_1[0][0]          
__________________________________________________________________________________________________
agent_repr_0 (Dense)            (None, 9, 1, 32)     1056        reshape_1[0][0]                  
__________________________________________________________________________________________________
neighbor_repr_0 (Dense)         (None, 9, 5, 32)     1056        lambda_1[0][0]                   
__________________________________________________________________________________________________
reshape_2 (Reshape)             (None, 9, 1, 32, 1)  0           agent_repr_0[0][0]               
__________________________________________________________________________________________________
reshape_3 (Reshape)             (None, 9, 5, 32, 1)  0           neighbor_repr_0[0][0]            
__________________________________________________________________________________________________
neighbor_hidden_repr_0 (Dense)  (None, 9, 5, 32)     1056        lambda_1[0][0]                   
__________________________________________________________________________________________________
lambda_2 (Lambda)               (None, 9, 1, 1, 32)  0           reshape_2[0][0]                  
__________________________________________________________________________________________________
lambda_3 (Lambda)               (None, 9, 1, 5, 32)  0           reshape_3[0][0]                  
__________________________________________________________________________________________________
reshape_5 (Reshape)             (None, 9, 5, 32, 1)  0           neighbor_hidden_repr_0[0][0]     
__________________________________________________________________________________________________
lambda_4 (Lambda)               (None, 9, 1, 1, 5)   0           lambda_2[0][0]                   
                                                                 lambda_3[0][0]                   
__________________________________________________________________________________________________
lambda_5 (Lambda)               (None, 9, 1, 5, 32)  0           reshape_5[0][0]                  
__________________________________________________________________________________________________
lambda_6 (Lambda)               (None, 9, 1, 32)     0           lambda_4[0][0]                   
                                                                 lambda_5[0][0]                   
__________________________________________________________________________________________________
reshape_6 (Reshape)             (None, 9, 32)        0           lambda_6[0][0]                   
__________________________________________________________________________________________________
MLP_after_relation_0 (Dense)    (None, 9, 32)        1056        reshape_6[0][0]                  
__________________________________________________________________________________________________
reshape_4 (Reshape)             (None, 9, 1, 5)      0           lambda_4[0][0]                   
__________________________________________________________________________________________________
action_layer (Dense)            (None, 9, 4)         132         MLP_after_relation_0[0][0]       
__________________________________________________________________________________________________
reshape_7 (Reshape)             (None, 1, 9, 1, 5)   0           reshape_4[0][0]                  
==================================================================================================
Total params: 6,084
Trainable params: 6,084
Non-trainable params: 0
__________________________________________________________________________________________________
build_Input_end_time： 0.11150860786437988
embedding_time: 0.2612159252166748
total time: 2.331134796142578
__________________________________________________________________________________________________
Layer (type)                    Output Shape         Param #     Connected to                     
==================================================================================================
feature (InputLayer)            (None, 9, 20)        0                                            
__________________________________________________________________________________________________
Dense_embed_0 (Dense)           (None, 9, 32)        672         feature[0][0]                    
__________________________________________________________________________________________________
Dense_embed_1 (Dense)           (None, 9, 32)        1056        Dense_embed_0[0][0]              
__________________________________________________________________________________________________
adjacency_matrix (InputLayer)   (None, 9, 5, 9)      0                                            
__________________________________________________________________________________________________
repeat_vector3d_1 (RepeatVector (None, 9, 9, 32)     0           Dense_embed_1[0][0]              
__________________________________________________________________________________________________
reshape_1 (Reshape)             (None, 9, 1, 32)     0           Dense_embed_1[0][0]              
__________________________________________________________________________________________________
lambda_1 (Lambda)               (None, 9, 5, 32)     0           adjacency_matrix[0][0]           
                                                                 repeat_vector3d_1[0][0]          
__________________________________________________________________________________________________
agent_repr_0 (Dense)            (None, 9, 1, 32)     1056        reshape_1[0][0]                  
__________________________________________________________________________________________________
neighbor_repr_0 (Dense)         (None, 9, 5, 32)     1056        lambda_1[0][0]                   
__________________________________________________________________________________________________
reshape_2 (Reshape)             (None, 9, 1, 32, 1)  0           agent_repr_0[0][0]               
__________________________________________________________________________________________________
reshape_3 (Reshape)             (None, 9, 5, 32, 1)  0           neighbor_repr_0[0][0]            
__________________________________________________________________________________________________
neighbor_hidden_repr_0 (Dense)  (None, 9, 5, 32)     1056        lambda_1[0][0]                   
__________________________________________________________________________________________________
lambda_2 (Lambda)               (None, 9, 1, 1, 32)  0           reshape_2[0][0]                  
__________________________________________________________________________________________________
lambda_3 (Lambda)               (None, 9, 1, 5, 32)  0           reshape_3[0][0]                  
__________________________________________________________________________________________________
reshape_5 (Reshape)             (None, 9, 5, 32, 1)  0           neighbor_hidden_repr_0[0][0]     
__________________________________________________________________________________________________
lambda_4 (Lambda)               (None, 9, 1, 1, 5)   0           lambda_2[0][0]                   
                                                                 lambda_3[0][0]                   
__________________________________________________________________________________________________
lambda_5 (Lambda)               (None, 9, 1, 5, 32)  0           reshape_5[0][0]                  
__________________________________________________________________________________________________
lambda_6 (Lambda)               (None, 9, 1, 32)     0           lambda_4[0][0]                   
                                                                 lambda_5[0][0]                   
__________________________________________________________________________________________________
reshape_6 (Reshape)             (None, 9, 32)        0           lambda_6[0][0]                   
__________________________________________________________________________________________________
MLP_after_relation_0 (Dense)    (None, 9, 32)        1056        reshape_6[0][0]                  
__________________________________________________________________________________________________
reshape_4 (Reshape)             (None, 9, 1, 5)      0           lambda_4[0][0]                   
__________________________________________________________________________________________________
action_layer (Dense)            (None, 9, 4)         132         MLP_after_relation_0[0][0]       
__________________________________________________________________________________________________
reshape_7 (Reshape)             (None, 1, 9, 1, 5)   0           reshape_4[0][0]                  
==================================================================================================
Total params: 6,084
Trainable params: 6,084
Non-trainable params: 0
__________________________________________________________________________________________________
build_Input_end_time： 0.10045027732849121
embedding_time: 0.26085472106933594
total time: 2.3268728256225586
…
